MNIST/weights/mnist_net.pth (torch, 184660 bytes, 10 tensors)

conv1.weight f4 [8, 1, 5, 5]
-0.0039639566 0.027161662 0.15636945 -0.20805681 -0.003995161 0.18988901 0.038404327 -0.05659573
-0.073881716 -0.17315304 0.17542915 0.18160634 0.18979862 0.098022684 0.021022283 0.18959884
0.14220397 -0.04608874 0.05708159 0.0037084657 0.23639053 -0.14615647 0.082247235 -0.16131426
-0.19390142 0.009388182 -0.07818287 -0.17410943 0.011534217 0.17729355 -0.11176089 -0.20714545
-0.050232995 0.14000207 -0.03784648 0.063288756 -0.039578088 0.056837134 0.046376877 -0.17962693
-0.08768549 0.08969886 -0.0014475655 -0.186388 0.17812064 0.15457726 0.14395224 -0.19860116
-0.103489764 0.044959843 0.14396761 -0.18108706 -0.12338248 0.18123518 0.17838159 0.05039462
-0.17950714 -0.16926813 0.033736903 0.21101296 0.09464423 -0.18431996 -0.0017530428 -0.14823633
0.25517586 0.13096932 -0.15875825 0.030423107 0.15734112 0.15149239 -0.1982145 -0.20728213
0.054423507 -0.15030716 0.1393333 -0.105347544 -0.030052084 0.052020818 0.1661346 0.18923213
-0.12736875 -0.1621587 0.07744047 0.18668625 -0.03093661 -0.090599105 0.059733655 -0.01980474
-0.1697858 -0.031812947 0.086502194 0.17082708 -0.07177636 0.032278996 -0.16674037 0.18191364
-0.18679176 -0.09009396 0.004250614 0.15210775 0.023055114 0.17765646 -0.121526256 -0.13118188
-0.09814188 -0.06939306 0.122744404 0.17176951 0.12787919 -0.1584148 -0.07028559 -0.09583268
0.2017677 0.023180882 0.045719314 0.08802777 -0.15224281 -0.078434944 -0.105004236 0.109904386
-0.07553761 0.15011278 0.15581387 0.08166267 0.13710882 -0.039415 0.13186616 -0.10044949
-0.057278555 0.044825148 -0.044871755 0.046853907 -0.11022762 0.13847274 0.14706008 -0.06986487
0.118809626 -0.16654396 0.21761139 -0.14565064 0.13174027 -0.19504173 -0.17812055 0.08440066
0.088533975 -0.070391394 -0.16036761 -0.04297892 0.20174016 0.11027308 -0.062067654 0.17332521
0.10786925 -0.097718954 -0.21526942 0.019155975 0.19854079 0.12775111 -0.0731874 0.057046004
-0.1309302 0.0050725252 -0.112707764 0.04695157 0.12754217 0.060442816 -0.06695256 0.058973357
0.029021692 -0.19562607 0.04949502 -0.017245216 0.058832407 -0.034438334 -0.17547075 0.009190166
-0.09230052 -0.15353821 -0.13674337 0.10923996 -0.038827784 -0.054183993 -0.13748313 -0.09890286
0.11283941 0.1526034 0.0029237308 0.0634879 -0.011112924 -0.015218722 -0.044353742 0.038052958
-0.07938785 -0.04712405 0.18682154 0.17529881 0.22235842 0.14680502 -0.019172823 -0.10049623
00000000: 14e4 81bb 2282 de3c 501f 203e d80c 55be
00000010: d7e9 82bb 4472 423e db4d 1d3d edd0 67bd
00000020: 4c4f 97bd 084f 31be b3a3 333e 03f7 393e
00000030: 925a 423e 1ec0 c83d ec36 ac3c 3326 423e
00000040: eb9d 113e 8cc7 3cbd 63ce 693d bb09 733b
00000050: 5c10 723e 0baa 15be 3d71 a83d 912f 25be
00000060: 188e 46be e4d0 193c 571e a0bd be49 32be
00000070: 03fa 3c3c 718c 353e e5e2 e4bd f01d 54be
00000080: 1dc1 4dbd b45c 0f3e e904 1bbd 899d 813d
00000090: a21c 22bd 0ece 683d aef5 3d3d 1ff0 37be
000000a0: 7394 b3bd 09b4 b73d 3dbc bdba 7fdc 3ebe
000000b0: 4265 363e 8049 1e3e 3768 133e 1a5e 4bbe
000000c0: 71f2 d3bd d027 383d 3f6c 133e e36e 39be
000000d0: f4af fcbd b795 393e aaa9 363e 976a 4e3d
000000e0: b8d0 37be a054 2dbe b52f 0a3d c813 583e
000000f0: d6d4 c13d 5fbe 3cbe 5bc6 e5ba 44cb 17be
00000100: 69a6 823e d21c 063e 8691 22be e139 f93c
00000110: 081e 213e d220 1b3e bef8 4abe c441 54be
00000120: 2feb 5e3d 1fea 19be 63ad 0e3e 74c0 d7bd
00000130: ca2f f6bc c813 553d 301f 2a3e 11c6 413e
00000140: f46c 02be ee0c 26be 1c99 9e3d ae2a 3f3e
00000150: c66e fdbc 068c b9bd 47ab 743d 8d3d a2bc
00000160: 54dc 2dbe 4b4e 02bd 1028 b13d 4bed 2e3e
00000170: 7cff 92bd fb36 043d fdbd 2abe 9247 3a3e
00000180: 5746 3fbe 2f83 b8bd bc48 8b3b 22c2 1b3e
00000190: 14de bc3c 93eb 353e c2e2 f8bd 8b54 06be
000001a0: 9cfe c8bd f31d 8ebd 6b61 fb3d 59e4 2f3e
000001b0: c3f2 023e 7d37 22be e4f1 8fbd ed43 c4bd
000001c0: 319c 4e3e d5e5 bd3c 2d44 3b3d e747 b43d
000001d0: 8ae5 1bbe 80a2 a0bd 760c d7bd 8d15 e13d
000001e0: 76b3 9abd 2ab7 193e ac8d 1f3e c23e a73d
000001f0: 4166 0c3e 9f71 21bd ec07 073e 76b8 cdbd
00000200: eb9c 6abd 939a 373d 72cb 37bd e2e9 3f3d
00000210: 05bf e1bd cccb 0d3e eb96 163e 5015 8fbd
00000220: 7652 f33d 808a 2abe 85d5 5e3e 7125 15be
00000230: ece6 063e 05b9 47be 3c65 36be 41da ac3d
00000240: 4d51 b53d 5d29 90bd 6837 24be aa0a 30bd
00000250: f994 4e3e dad6 e13d a73a 7ebd 2a7c 313e
00000260: 8eea dc3d e020 c8bd 966f 5cbe feec 9c3c
00000270: 474e 4b3e 30d1 023e 47e3 95bd 12a9 693d
00000280: 9112 06be 6d37 a63b 54d3 e6bd 4a50 403d
00000290: 6a9a 023e e392 773d 6c1e 89bd 0c8e 713d
000002a0: e6be ed3c 3352 48be 4abb 4a3d d745 8dbc
000002b0: 40fa 703d 360f 0dbd 9bae 33be 5a92 163c
000002c0: 0e08 bdbd 1f39 1dbe 7406 0cbe 33b9 df3d
000002d0: e209 1fbd 09f0 5dbd 61c8 0cbe 958d cabd
000002e0: 5918 e73d 1144 1c3e 109c 3f3b f205 823d
000002f0: fb12 36bc f257 79bc 45ac 35bd 6bdd 1b3d
00000300: 1996 a2bd 2605 41bd 254e 3f3e 8881 333e
00000310: edb1 633e 0e54 163e 5310 9dbc f8d0 cdbd

conv1.bias f4 [8]
0.19567037 0.2118827 0.09581817 0.01946434 -0.14734656 0.021405596 -0.09120191 0.09368767
00000000: d05d 483e c7f7 583e 513c c43d ae73 9f3c
00000010: 04e2 16be ca5a af3c 11c8 babd 52df bf3d

conv2.weight f4 [16, 8, 5, 5]
-0.050482962 -0.0055965697 0.062086534 0.059290882 0.042901013 0.06255772 0.038578015 0.042100996
-0.0076606306 0.049744528 0.05202707 -0.0035544753 0.068261474 0.078396775 0.034577362 0.064892754
0.050004147 0.02396366 -0.035688523 -0.03712207 0.09158133 -0.025900438 0.008159018 -0.07071572
-0.053125672 0.063293755 -0.03308916 -0.0011417383 -0.012683076 0.003328491 -0.03005412 0.055292122
-0.00047930997 0.02596594 0.034978017 0.048116148 -0.04481006 -0.0001823418 -0.04336402 -0.05118685
0.012801019 -0.020962814 -0.04337084 -0.03711494 0.041354146 -0.0055460623 0.059179734 0.04856453
-0.046490766 0.03986679 0.0024056311 0.07258933 -0.012930236 0.06508668 -0.072451174 -0.014235996
0.03060517 0.00034957667 0.023503577 0.041740835 0.06127877 -0.03392758 0.050611388 -0.034011405
-0.025517369 0.07541884 -0.04862562 -0.06495091 0.022032673 -0.044900566 -0.012741129 0.046195168
0.00058234925 0.028074909 0.046870578 0.011010014 -0.0140856635 0.019798229 0.06917201 -0.024087932
0.062801026 -0.05110985 0.029200034 0.048164103 0.05269079 0.06446296 -0.0128131155 0.014362699
0.0022839692 0.028187161 -0.04256083 0.0094954325 -0.022631828 -0.06532296 -0.033946205 0.03522001
0.034783013 -0.07030659 0.022297857 0.06978898 0.024816426 0.0392096 -0.051163346 -0.03167304
0.03321098 -0.03186518 0.07399192 -0.011588688 -0.021375777 -0.05592305 -0.0071319393 -0.043481145
-0.010328237 -0.017758032 -0.03065692 -0.022105634 -0.022808244 -0.044095848 -0.040823024 -0.038319554
0.011492947 -0.026904816 0.03147246 0.040069576 0.008853578 -0.052488327 0.02695849 0.034430772
-0.06682638 -0.047962833 -0.052581474 -0.0468921 0.024522282 0.018645253 -0.059312876 -0.04760577
0.011500535 -0.06445281 -0.024264986 0.008789373 0.03477402 -0.069893464 0.011741986 -0.054071214
0.058155686 0.06386752 -0.016030151 -0.042610485 -0.05114157 0.069877826 -0.057464357 -0.067446634
-0.041037895 -0.008245101 -0.06252117 0.071110465 0.024884548 0.03958741 0.013999125 0.063847676
0.06424092 0.014086341 -0.037846684 0.029129395 -0.046563737 0.021743653 0.034088474 0.029213931
0.026128454 -0.03996546 0.045317866 -0.058461685 -0.0557137 -0.043797366 -0.0018052211 -0.0025260055
-0.042732183 -0.041816067 0.046719518 0.05167679 0.021524498 0.040605914 0.024181098 -0.0045685177
-0.023319848 0.0744759 -0.027718095 0.06322094 0.009289205 0.011809751 0.08372213 -0.020735892
-0.00095336715 0.05095789 -0.026025899 -0.039986916 -0.054754812 0.008173213 -0.03812589 -0.04290807
0.00064958684 -0.010127311 0.051092952 -0.04949398 0.059672803 0.0076173763 0.055406168 -0.029324282
0.08407758 0.03625214 -0.06636678 -0.024959361 -0.03208691 0.0419595 0.05825878 -0.04125925
-0.03946645 -0.042939633 0.051733248 -0.054149725 0.002239822 -0.06108176 -0.013274441 0.010104578
-0.05438534 -0.06578053 0.0062517226 0.011882016 -0.00036981824 -0.03315394 -0.019620305 0.03096591
0.022723258 -0.025339965 0.0270143 0.06276231 0.022443699 0.009478524 -0.04259737 0.05195046
0.06588814 0.04563646 -0.061855633 -0.052717965 0.0030576235 0.017004225 0.0039438293 0.057511404
-0.03304982 -0.02927085 -0.052821364 0.06081053 0.090212844 0.06576451 -0.0496103 0.019744297
00000000: 39c7 4ebd 6e63 b7bb 734e 7e3d ffda 723d
00000010: f9b8 2f3d 431e 803d fb03 1e3d 1872 2c3d
00000020: 0706 fbbb ebc0 4b3d 561a 553d 33f2 68bb
00000030: accc 8b3d 7d8e a03d fea0 0d3d 7ee6 843d
00000040: 26d1 4c3d 704f c43c 212e 12bd 500d 18bd
00000050: fe8e bb3d 282d d4bc 67ad 053c 67d3 90bd
00000060: 4e9a 59bd 28a0 813d 8088 07bd 61a6 95ba
00000070: adcc 4fbc d022 5a3b 0f34 f6bc fe79 623d
00000080: e54b fbb9 86b6 d43c 1c45 0f3d 7015 453d
00000090: c18a 37bd 0133 3fb9 789e 31bd 4da9 51bd
000000a0: 5dbb 513c 35ba abbc 9fa5 31bd d605 18bd
000000b0: f762 293d bebb b5bb 7366 723d 9aeb 463d
000000c0: 1a6d 3ebd 5c4b 233d cba7 1d3b b7a9 943d
000000d0: 57d9 53bc 2a4c 853d 4861 94bd 183e 69bc
000000e0: b2b7 fa3c 6347 b739 938a c03c 70f8 2a3d
000000f0: 73ff 7a3d a5f7 0abd e34d 4f3d 8b4f 0bbd
00000100: cd09 d1bc 3175 9a3d a82b 47bd fc04 85bd
00000110: dd7d b43c a8e9 37bd 2bc0 50bc 2537 3d3d
00000120: cca8 183a 5afd e53c 5dfb 3f3d 5963 343c
00000130: 8ec7 66bc e52f a23c 0eaa 8d3d 0e54 c5bc
00000140: d39d 803d 9058 51bd e934 ef3c b947 453d
00000150: 4cd2 573d 2805 843d 1aee 51bc 8751 6b3c
00000160: a5ae 153b c3e8 e63c 4454 2ebd bb92 1b3c
00000170: 6266 b9bc 0bc8 85bd 2d0b 0bbd db42 103d
00000180: a278 0e3d e7fc 8fbd ffa9 b63c 86ed 8e3d
00000190: d14b cb3c 3f9a 203d a890 51bd 97bb 01bd
000001a0: 3d08 083d 1085 02bd 1389 973d 7bde 3dbc
000001b0: 411c afbc 910f 65bd 0bb3 e9bb 4919 32bd
000001c0: c437 29bc 4b79 91bc 3924 fbbc e016 b5bc
000001d0: 5bd8 babc d99d 34bd 0b36 27bd f7f4 1cbd
000001e0: ea4c 3c3c 7d67 dcbc 44e9 003d ff1f 243d
000001f0: 990e 113c 00fe 56bd 0dd8 dc3c 4807 0d3d
00000200: 45dc 88bd ad74 44bd ac5f 57bd ee11 40bd
00000210: f4e2 c83c eebd 983c 0ff2 72bd 45fe 42bd
00000220: bd6c 3c3c d6ff 83bd 5dc7 c6bc 4d01 103c
00000230: 346f 0e3d 4e24 8fbd 7561 403c c779 5dbd
00000240: a834 6e3d f9cc 823d aa51 83bc 5588 2ebd
00000250: d379 51bd 1b1c 8f3d bf5f 6bbd 7621 8abd
00000260: 5a17 28bd 7616 07bc 190b 80bd 5da2 913d
00000270: aeda cb3c 6826 223d 965c 653c 92c2 823d
00000280: be90 833d 65ca 663c 2005 1bbd c5a0 ee3c
00000290: 9eb9 3ebd bf1f b23c 5ba0 0b3d 0e52 ef3c
000002a0: 570b d63c d2b2 23bd 3a9f 393d 8575 6fbd
000002b0: 0c34 64bd de64 33bd 2b9d ecba 578b 25bb
000002c0: f107 2fbd 5347 2bbd f75c 3f3d 0bab 533d
000002d0: 2554 b03c 6352 263d 7017 c63c 81b3 95bb
000002e0: 4409 bfbc d286 983d 0f11 e3bc fb79 813d
000002f0: c031 183c b07d 413c 8276 ab3d 51de a9bc
00000300: 63eb 79ba 38b9 503d 4434 d5bc 52c9 23bd
00000310: 9546 60bd f1e8 053c e529 1cbd 5fc0 2fbd
00000320: 0949 2a3a 05ed 25bc d846 513d 33ba 4abd
00000330: 786b 743d 2f9b f93b 94f1 623d 7a39 f0bc
00000340: de30 ac3d 207d 143d 4eeb 87bd 9377 ccbc
00000350: 906d 03bd badd 2b3d c2a0 6e3d 76ff 28bd
00000360: 93a7 21bd 78e1 2fbd 3ee6 533d 1acc 5dbd
00000370: fac9 123b de30 7abd 0a7d 59bc ac8d 253c
00000380: 2ac3 5ebd f1b7 86bd 40db cc3b caac 423c
00000390: 2ae4 c1b9 6dcc 07bd c3ba a0bc 38ac fd3c
000003a0: 2026 ba3c c295 cfbc 184d dd3c 8789 803d
000003b0: d9db b73c d04b 1b3c 947a 2ebd 01ca 543d
000003c0: 5cf0 863d 4ced 3a3d 555c 7dbd cbee 57bd
000003d0: 6962 483b 724c 8b3c 3d3b 813b 1491 6b3d
000003e0: 405f 07bd 6cc9 efbc 375b 58bd 7614 793d
000003f0: 83c1 b83d 8baf 863d 2c34 4bbd cbbe a13c

conv2.bias f4 [16]
0.06647692 0.06760575 0.042244103 -0.061354943 -0.055476535 -0.0070243203 0.06752038 0.005712458
0.06035237 -0.041278012 0.046890028 0.048996076 0.032731127 -0.0026519466 -0.04964263 -0.044014968
00000000: 0d25 883d e274 8a3d 2708 2d3d 524f 7bbd
00000010: 5d3b 63bd 452c e6bb 2048 8a3d 922f bb3b
00000020: 0c34 773d 2213 29bd c20f 403d 1cb0 483d
00000030: 1311 063d 48cc 2dbb 1256 4bbd 0a49 34bd

fc1.weight f4 [128, 256]
0.011113497 -0.05465364 -0.03785017 -0.05190693 0.02119575 0.03868684 -0.0028413304 -0.037626196
0.038970403 -0.039725468 -0.022982476 0.0026931658 -0.050937913 0.009489161 0.012905705 -0.05824669
-0.015714964 -0.026968064 -0.022853203 0.04726742 0.009283243 -0.019927666 0.028955402 -0.033150062
-0.020471282 0.057898134 0.0037129493 -0.009953957 0.054944724 -0.025015058 -0.016906064 0.0044877836
-0.052211117 0.051810246 -0.009367272 0.05911205 0.009714774 -0.052207425 -0.049651954 -0.0064358427
-0.04775832 -0.017537845 0.021361906 0.05406052 -0.0006338188 -0.02807726 -0.0063506747 -0.046712164
-0.045873296 -0.008721908 0.015311659 0.02660779 -0.04018864 0.037168957 0.034772802 -0.033924434
-0.009330064 0.012384519 0.046983223 0.02743846 0.040286154 0.02185638 -0.017822448 -0.0539202
-0.040146194 0.026106458 0.053305518 -0.0566253 0.05509748 0.0028017028 0.057625726 0.047891892
0.030734336 -0.008790607 0.06689704 0.001692136 -0.0035355603 -0.03144704 -0.0050997627 0.044104323
0.028826 0.03764974 -0.05424183 0.006605754 0.063904084 0.055715024 -0.011559841 -0.020294566
-0.049356222 0.014131632 0.060503177 -0.036671028 -0.056153357 -0.02327149 -0.0416155 -0.039370142
-0.01692468 0.054826327 -0.04808094 -0.06243722 0.004793101 -0.012826738 0.042844206 -0.038216013
0.038842354 -0.055340823 0.010625005 0.020520194 -0.04178145 -0.0032615205 0.04289993 0.009545046
-0.05796616 0.040506087 0.006413157 -0.051303867 0.05673677 -0.026909528 0.012157598 0.019398442
-0.031162081 0.0073886565 0.029064864 0.016461577 -0.030688982 -0.04369459 -0.0030480225 0.030543359
0.055547655 0.055491515 0.05718555 0.0038621326 0.016279764 0.0057625845 0.020478625 -0.04316539
0.033177 0.009305581 0.011457455 -0.024549542 -0.040758356 0.025292352 -0.039410826 0.057145897
0.008775895 -0.011311799 0.00546496 0.009777439 0.0056599164 0.011125743 0.04289709 0.03316517
0.05933181 0.04909413 0.036751766 -0.0415325 0.024188 -0.06073058 0.010384981 -0.053829562
-0.006647117 -0.017743222 -0.022792678 0.058774814 -0.043226082 -0.024534093 0.047292173 0.006147402
-0.04077612 0.00759132 0.055333383 0.009381149 0.049654 -0.0385365 -0.04498441 -0.035127856
0.0011142696 -0.062731974 -0.016071206 -0.03639584 0.06065839 0.005249925 0.011052993 0.048468404
0.061162274 0.03448649 0.057616416 -0.039950993 0.051929254 -0.046893068 -0.010253557 -0.020276442
-0.04239875 -0.051973756 0.019313576 -0.0070048478 0.036600344 0.017935662 0.00048209683 0.034029584
-0.06402783 0.025638923 0.01602986 0.03685886 0.03232108 -0.0067286855 0.06454997 -0.029694775
-0.03912306 -0.01896978 0.055715203 -0.00070311356 -0.06135324 -0.013531285 0.028997121 -0.011980093
0.030328982 0.015139606 -0.02000356 0.042532064 -0.03455222 -0.02817538 0.017852455 -0.007954625
0.01526564 -0.0047581797 0.004193756 -0.056566622 -0.03166218 0.008108857 0.019870024 -0.030231893
0.04674161 -0.060606513 0.04017264 -0.020212943 0.047556292 0.053275853 0.006147931 0.0035140398
-0.02878707 0.011945689 0.029164227 0.031080972 0.039683647 0.040527236 -0.004592006 0.0440983
0.0062645576 0.04137047 -0.0142552005 -0.037292354 0.028579213 -0.05226283 -0.012079831 0.018011874
00000000: 6315 363c 7fdc 5fbd c808 1bbd 5c9c 54bd
00000010: b6a2 ad3c 1876 1e3d 9d35 3abb ed1d 1abd
00000020: 6e9f 1f3d 2cb7 22bd bf45 bcbc d37f 303b
00000030: 46a4 50bd 6d78 1b3c 7372 533c 1594 6ebd
00000040: abbc 80bc 21ec dcbc a436 bbbc 7b9b 413d
00000050: be18 183c 583f a3bc e133 ed3c 5cc8 07bd
00000060: 64b3 a7bc 9826 6d3d f454 733b ec15 23bc
00000070: b80d 613d 61ec ccbc 967e 8abc 420e 933b
00000080: 53db 55bd fb36 543d 3079 19bc 7a1f 723d
00000090: b72a 1f3c 74d7 55bd d95f 4bbd c3e3 d2bb
000000a0: 3a9e 43bd 87ab 8fbc 2aff ae3c 906e 5d3d
000000b0: dc26 26ba 4802 e6bc 5219 d0bb 4155 3fbd
000000c0: a3e5 3bbd 55e6 0ebc c1dd 7a3c 94f8 d93c
000000d0: d89c 24bd 7a3e 183d ed6d 0e3d 59f4 0abd
000000e0: 20dd 18bc 70e8 4a3c 7b71 403d 9fc6 e03c
000000f0: 1803 253d 270c b33c 6200 92bc 6ddb 5cbd
00000100: 5670 24bd 36dd d53c e356 5a3d eeef 67bd
00000110: e5ad 613d c69c 373b f408 6c3d 4a2a 443d
00000120: 93c6 fb3c 7a06 10bc 5101 893d aaca dd3a
00000130: dcb4 67bb 9dce 00bd e91b a7bb bca6 343d
00000140: 8124 ec3c 9d36 1a3d ae2c 5ebd 1575 d83b
00000150: 25e0 823d 7035 643d 7d65 3dbc ca40 a6bc
00000160: c029 4abd 5c88 673c 2ed2 773d 5c34 16bd
00000170: 1001 66bd daa3 bebc 0475 2abd 9642 21bd
00000180: a0a5 8abc 9291 603d 85f0 44bd 2cbe 7fbd
00000190: 720f 9d3b 3d27 52bc 687d 2f3d 6588 1cbd
000001a0: 2919 1f3d 0fad 62bd 8014 2e3c f719 a83c
000001b0: 0723 2bbd 3cbf 55bb d6b7 2f3d d362 1c3c
000001c0: ed6d 6dbd b6e9 253d 7625 d23b 0124 52bd
000001d0: d164 683d 5f71 dcbc a930 473c 7be9 9e3c
000001e0: 9f47 ffbc 8b1c f23b 7019 ee3c 6eda 863c
000001f0: 7667 fbbc 19f9 32bd 55c1 47bb 1136 fa3c
00000200: f085 633d 124b 633d 653b 6a3d d51b 7d3b
00000210: 245d 853c 10d4 bc3b cac2 a73c 31ce 30bd
00000220: 9be4 073d 7076 183c 0db8 3b3c 1f1c c9bc
00000230: 3cf2 26bd e831 cf3c 3f6d 21bd d111 6a3d
00000240: c6c8 0f3c 2055 39bc 6813 b33b 8d31 203c
00000250: d276 b93b c048 363c dcb4 2f3d 34d8 073d
00000260: e905 733d ed16 493d 0589 163d fc1d 2abd
00000270: ea25 c63c a1c0 78bd c425 2a3c 637c 5cbd
00000280: 0fd0 d9bb 3c5a 91bc b6b7 babc dcbd 703d
00000290: d50d 31bd b9fb c8bc 70b5 413d 2570 c93b
000002a0: dc04 27bd 9cc0 f83b 42a5 623d 64b3 193c
000002b0: fe61 4b3d 73d8 1dbd 9341 38bd 3ae2 0fbd
000002c0: af0c 923a 9f79 80bd c3a7 83bc ce13 15bd
000002d0: ef74 783d 9007 ac3b 9d17 353c ce86 463d
000002e0: 4b85 7a3d b541 0d3d 31ff 6b3d a7a3 23bd
000002f0: c5b3 543d f212 40bd 89fe 27bc c81a a6bc
00000300: 50aa 2dbd 6fe2 54bd 8137 9e3c ec88 e5bb
00000310: 3eea 153d cfed 923c f1c1 fc39 9b62 0b3d
00000320: 0621 83bd b808 d23c 0e51 833c 51f9 163d
00000330: 1c63 043d 4e7c dcbb c632 843d 7542 f3bc
00000340: 803f 20bd 8366 9bbc a035 643d 2751 38ba
00000350: 894d 7bbd 53b2 5dbc 5f8b ed3c 2748 44bc
00000360: 7c74 f83c 1c0c 783c 82de a3bc 1a36 2e3d
00000370: a186 0dbd 0ed0 e6bc 503f 923c 1e54 02bc
00000380: bc1c 7a3c 81ea 9bbb c66b 893b 67b2 67bd
00000390: 34b0 01bd 03db 043c 76c6 a23c e0a8 f7bc
000003a0: 2174 3f3d 893e 78bd 118c 243d 9d95 a5bc
000003b0: 63ca 423d c837 5a3d 9574 c93b ce4b 663b
000003c0: ddd2 ebbc dab7 433c d1e9 ee3c 869d fe3c
000003d0: 528b 223d e3ff 253d 8a78 96bb 6ba0 343d
000003e0: eb46 cd3b 1574 293d a58e 69bc debf 18bd
000003f0: f41e ea3c 8d11 56bd 7cea 45bc a38d 933c

fc1.bias f4 [128]
0.009573288 -0.0073883687 -0.018078376 -0.003215553 0.030401513 0.02834042 0.049942903 0.011885386
-0.00197329 0.039456584 -0.028422752 -0.023396011 0.05101841 -0.035449028 0.049688138 -0.030999964
-0.007054477 0.002024084 0.058415722 0.02094908 0.040898904 0.013869852 -0.025832988 0.007060092
0.039672453 -0.02646865 -0.055815108 0.018095572 0.0050174715 0.003240432 0.057026055 -0.023222156
-0.02096476 0.040819395 -0.028583093 -0.024524786 0.01816078 0.032757092 -0.022367422 0.05150759
-0.0051417593 -0.03315359 0.013913904 -0.038355477 -0.046543077 0.04779471 -0.043507736 -0.0062194425
0.03674521 -0.0028009624 -0.0547636 0.05578063 -0.04514759 -0.0573694 0.056189056 0.02873314
-0.054745138 0.0429869 -0.015490719 -0.037298582 -0.024995737 0.041518636 -0.061084624 -0.06372837
-0.044918783 0.06126336 -0.037324224 -0.039496206 0.004652383 0.013441498 0.036860377 -0.03635482
-0.016526602 0.05862864 0.06014112 0.026476748 0.004890613 -0.03668525 -0.035032827 -0.043398812
-0.01590806 0.02818406 -0.05505145 -0.051287785 0.005110274 0.06357236 -0.047984015 -0.041123424
0.021582676 0.008608926 -0.038817324 0.04586191 0.00897894 0.014613851 0.038597926 -0.0328548
0.013021313 0.013181449 -0.038520727 0.03954307 -0.032261718 -0.014822083 -0.030380003 -0.029624755
0.041434094 -0.043868653 -0.033936244 -0.03908346 0.052014504 -0.027176665 -0.017777048 0.06144225
-0.0036423958 0.048661195 -0.055192076 -0.034614034 -0.054728527 -0.009726657 0.0030670604 0.056666452
-0.059927024 0.054503627 -0.041655406 0.022254266 -0.032966927 -0.0023797215 0.032883275 0.02995616
00000000: 48d9 1c3c 211a f2bb 1a19 94bc 07bc 52bb
00000010: 980c f93c 2b2a e83c ee90 4c3d ecba 423c
00000020: 5052 01bb 3a9d 213d d5d6 e8bc fea8 bfbc
00000030: aef8 503d 0033 11bd ca85 4b3d a3f3 fdbc
00000040: 3e29 e7bb 7fa6 043b 5345 6f3d 689d ab3c
00000050: 9c85 273d 603e 633c b49f d3bc 5858 e73b
00000060: 957f 223d c8d4 d8bc 629e 64bd 2a3d 943c
00000070: 9a69 a43b 6d5d 543b 2794 693d 643c bebc
00000080: 4abe abbc 3d32 273d 1727 eabc 34e8 c8bc
00000090: ebc5 943c 4d2c 063d e23b b7bc 9ff9 523d
000000a0: 347c a8bb 0fcc 07bd 25f7 633c a21a 1dbd
000000b0: f4a3 3ebd 63c4 433d 2b35 32bd 77cc cbbb
000000c0: 2582 163d 5a90 37bb cc4f 60bd 3b7a 643d
000000d0: aeec 38bd 2dfc 6abd 7f26 663d c361 eb3c
000000e0: 703c 60bd 0813 303d c9cc 7dbc 66c6 18bd
000000f0: dcc3 ccbc 720f 2a3d df33 7abd 0584 82bd
00000100: c2fc 37bd 4aef 7a3d 49e1 18bd c6c6 21bd
00000110: 0473 983b bb39 5c3c e8fa 163d cbe8 14bd
00000120: cc62 87bc 9624 703d 8956 763d c4e5 d83c
00000130: 6f41 a03b 4643 16bd 957e 0fbd f4c2 31bd
00000140: 9f51 82bc 42e2 e63c a17d 61bd 2413 52bd
00000150: 1674 a73b 3a32 823d e38a 44bd 0971 28bd
00000160: 27ce b03c 740c 0d3c eafe 1ebd b3d9 3b3d
00000170: 671c 133c ef6e 6f3c dc18 1e3d c192 06bd
00000180: 5857 553c 01f7 573c e9c7 1dbd eaf7 213d
00000190: dd24 04bd 52d8 72bc 7cdf f8bc 9daf f2bc
000001a0: ccb6 293d 9eaf 33bd bb00 0bbd fa15 20bd
000001b0: 290d 553d 99a1 debc 2ca1 91bc deaa 7b3d
000001c0: 43b5 6ebb f650 473d 1611 62bd 72c7 0dbd
000001d0: 052b 60bd 8e5c 1fbc bc00 493b 151b 683d
000001e0: 0a76 75bd 323f 5f3d dc9e 2abd 944e b63c
000001f0: 5408 07bd 1af5 1bbb 9db0 063d 9f66 f53c

fc2.weight f4 [64, 128]
0.08437686 0.027206482 -0.072487354 -0.022653595 -0.08757421 0.010391398 -0.066391855 -0.0064735813
-0.06396952 0.0507251 -0.051854715 0.09642909 -0.039613232 0.06030796 0.07344512 0.072879516
-0.038145777 -0.07478206 0.086368255 -0.067400895 -0.021678759 -0.014246551 -0.042179503 0.05997212
-0.028232899 -0.0828339 0.011552875 -0.06738315 0.01600249 0.050276842 -0.032829948 -0.018588224
-0.09060172 -0.07480227 -0.032345515 0.07957786 0.03813613 0.089501336 -0.062785126 0.036063578
-0.061233684 0.053489707 0.0528189 -0.02608163 0.0028061299 -0.021158254 -0.052932326 0.062563196
0.07877629 0.049383998 -0.012952339 -0.035281837 0.06970348 0.03881202 0.070939675 -0.083127536
-0.070222676 -0.06524782 -0.04137366 -0.03996421 0.080043934 0.084057435 -0.059897218 0.07960514
-0.08416511 -0.01556717 -0.007326672 0.04293173 0.0720783 -0.07138494 0.058282543 -0.02599735
-0.08763336 0.074872024 0.05746472 0.022701854 -0.047602613 0.07650029 -0.013902272 -0.039739158
0.011725869 0.04848384 -0.02393886 -0.05823959 -0.035200693 -0.043393034 -0.079739004 -0.0012296311
0.09493371 0.02198467 -0.08044104 -0.05293793 -0.012881929 0.055192918 -0.012894991 -0.08846493
-0.011208208 -0.007376411 0.030146925 0.0024574813 -0.05368214 0.0004191816 -0.005447057 2.3607628e-05
-0.04120585 -0.043923736 -0.030559562 -0.008695873 0.02906997 0.012869326 0.034042723 -0.05187913
0.03465217 0.055361263 0.026821485 0.08498073 -0.06947907 0.052437264 0.040498454 -0.049798492
-0.050023515 -0.058799446 0.05802201 0.06631157 -0.013073686 -0.018362138 0.07259027 0.015289691
-0.051159535 -0.07700751 0.05529942 0.08603874 -0.06049839 0.015349272 -0.07100049 0.074847125
0.07462561 -0.050826535 0.08581156 0.013705246 -0.012952262 0.0576802 0.036141384 -0.087978296
-0.084341116 0.027657056 0.0077523272 0.080497034 -0.047997408 -0.07738637 0.08383079 -0.05735031
0.07420792 0.0031933214 0.05616218 -0.08708193 0.00984371 -0.022616543 -0.09349438 0.06751062
-0.030568335 -0.020985166 -0.05615546 -0.04112014 -0.06655991 0.001563945 -0.097796075 0.0720921
-0.06906423 -0.010076375 -0.02607343 -0.009082934 -0.046811115 0.050947394 0.0485112 -0.014390988
-0.02544903 0.07233882 -0.012126041 -0.039325546 0.05597385 -0.047111288 0.020500561 0.001342087
-0.07232857 0.028146507 0.045169193 -0.029133681 0.07216728 0.04253251 0.053266246 0.08276118
-0.011101729 0.021276424 0.0025796087 -0.023049666 -0.012416376 0.023184946 -0.05724592 0.07240347
-0.075123034 -0.025021646 0.007026601 0.033888143 0.0778873 0.05332047 0.008090881 0.010054187
-0.013136046 0.043936145 0.072703525 0.06533217 0.07647394 -0.04867273 0.029363584 0.03587854
-0.055133097 -0.008181752 -0.04764478 0.073372535 0.02655164 0.08464035 -0.079109035 -0.06876224
0.04609671 0.04271663 -0.02145515 0.023180854 0.051664878 0.07992593 0.08299102 0.046246454
-0.07365526 -0.052187 -0.07428563 -0.06761179 0.041099604 -0.08176886 0.0148809515 0.03170141
-0.043412007 -0.0052269567 0.030932983 -0.041340273 -0.037338622 -0.02481744 0.043013506 -0.024677482
0.05601393 0.00889838 0.087206736 -0.040132254 -0.051461596 -0.05011578 -0.01269058 0.0764994
00000000: c6cd ac3d 21e0 de3c 4074 94bd 0894 b9bc
00000010: 1b5a b3bd af40 2a3c 74f8 87bd 5620 d4bb
00000020: 7402 83bd 1fc5 4f3d 9c65 54bd 9d7c c53d
00000030: 7c41 22bd 7b05 773d 656a 963d db41 953d
00000040: bf3e 1cbd 5627 99bd d7e1 b03d 7b09 8abd
00000050: a797 b1bc 5e6a 69bc 6ac4 2cbd 53a5 753d
00000060: ae48 e7bc d2a4 a9bd 4548 3d3c 2d00 8abd
00000070: a717 833c 17ef 4d3d b278 06bd 5546 98bc
00000080: 658d b9bd ef31 99bd bb7c 04bd b8f9 a23d
00000090: a134 1c3d 7a4c b73d 7d95 80bd 67b7 133d
000000a0: 2cd0 7abd 0618 5b3d a258 583d 24a9 d5bc
000000b0: 0ce7 373b 1354 adbc 91cf 58bd 2221 803d
000000c0: 7755 a13d e046 4a3d 0c36 54bc b083 10bd
000000d0: b3c0 8e3d 5af9 1e3d d248 913d c53e aabd
000000e0: e8d0 8fbd a6a0 85bd 6d77 29bd 83b1 23bd
000000f0: 13ee a33d 4e26 ac3d c956 75bd 0508 a33d
00000100: c25e acbd 720d 7fbc 9414 f0bb 2fd9 2f3d
00000110: ca9d 933d 4432 92bd adb9 6e3d 65f8 d4bc
00000120: 1e79 b3bd 8156 993d 2060 6b3d 3df9 b93c
00000130: f5fa 42bd 2fac 9c3d 5bc6 63bc 87c5 22bd
00000140: dc1d 403c fe96 463d 6e1b c4bc a38c 6ebd
00000150: 9a2e 10bd e5bc 31bd 344e a3bd 932b a1ba
00000160: 9b6c c23d 3219 b43c 46be a4bd 71d5 58bd
00000170: ba0e 53bc f811 623d 8345 53bc 1a2d b5bd
00000180: a2a2 37bc d2b5 f1bb aff6 f63c b20d 213b
00000190: cee1 5bbd 9ac5 db39 3a7d b2bb ff08 c637
000001a0: 77c7 28bd 60e9 33bd 0c58 fabc 2379 0ebc
000001b0: 2524 ee3c ded9 523c 6270 0b3d 367f 54bd
000001c0: 6fef 0d3d 7ec2 623d bbb8 db3c 610a ae3d
000001d0: 0b4b 8ebd 75c8 563d b5e1 253d 81f9 4bbd
000001e0: 75e5 4cbd b0d7 70bd 7da8 6d3d 5cce 873d
000001f0: 0333 56bc 326c 96bc 35aa 943d 9d81 7a3c
00000200: a98c 51bd 1db6 9dbd a581 623d 1435 b03d
00000210: 29cd 77bd 837b 7b3c b468 91bd 7349 993d
00000220: 50d5 983d 7c2f 50bd f9bd af3d f88b 603c
00000230: b935 54bc 1342 6c3d fd08 143d f72d b4bd
00000240: 09bb acbd 0d91 e23c 3c07 fe3b a1db a43d
00000250: ee98 44bd bf7c 9ebd 7aaf ab3d 29e8 6abd
00000260: 52fa 973d 0b47 513b 500a 663d 0358 b2bd
00000270: 8347 213c 5446 b9bc fb79 bfbd 0243 8a3d
00000280: 726a fabc 15e9 abbc 4503 66bd 986d 28bd
00000290: 9050 88bd 49fd cc3a 4f49 c8bd 06a5 933d
000002a0: 8c71 8dbd 6117 25bc f297 d5bc 96d0 14bc
000002b0: 03bd 3fbd 37ae 503d aeb3 463d 2ec8 6bbc
000002c0: 7c7a d0bc 6026 943d 4dac 46bc d313 21bd
000002d0: d644 653d c4f7 40bd cbf0 a73c f8e8 af3a
000002e0: 0021 94bd 8193 e63c 5503 393d c2a9 eebc
000002f0: 70cc 933d 9236 2e3d b52d 5a3d b27e a93d
00000300: 07e4 35bc e54b ae3c a70e 293b a7d2 bcbc
00000310: 0e6e 4bbc 5bee bd3c b37a 6abd 4548 943d
00000320: 1bda 99bd 32fa ccbc 673f e63b 4bce 0a3d
00000330: 6083 9f3d 9166 5a3d 9d8f 043c 51ba 243c
00000340: 9238 57bc 63f6 333d 96e5 943d dfcc 853d
00000350: 5e9e 9c3d 0e5d 47bd e68b f03c 60f5 123d
00000360: 3ed3 61bd c10c 06bc 2c27 43bd 5744 963d
00000370: d382 d93c eb57 ad3d eb03 a2bd 38d3 8cbd
00000380: e7cf 3c3d a2f7 2e3d b6c2 afbc c6e5 bd3c
00000390: 8d9e 533d 35b0 a33d 32f7 a93d ec6c 3d3d
000003a0: 92d8 96bd 09c2 55bd 1023 98bd 0d78 8abd
000003b0: 0f58 283d 6f76 a7bd 3ccf 733c 56d9 013d
000003c0: cad0 31bd e446 abbb 2b67 fd3c 6b54 29bd
000003d0: 62f0 18bd f24d cbbc ee2e 303d 6e28 cabc
000003e0: dd6e 653d 83ca 113c 7299 b23d b861 24bd
000003f0: 65c9 52bd 3446 4dbd 27ec 4fbc b8ab 9c3d

fc2.bias f4 [64]
0.02870676 0.019876799 0.10228471 0.0030364455 -0.002892057 -0.016114851 -0.052791014 -0.03389746
0.033984292 -0.0010386962 0.05786721 -0.06046449 0.012126014 -0.08947625 0.072333805 0.062112864
0.025410503 0.054490037 -0.056686234 0.088919125 -0.05006984 -0.07571461 0.06655136 0.047118805
-0.007875233 -0.0808662 0.03498619 0.08219791 -0.009968324 0.045868736 0.053713433 -0.057892323
-0.070965834 -0.062477175 0.08162716 0.08706579 0.05185364 -0.018185392 -0.084739506 -0.08062171
-0.03454765 0.0011087772 0.034831762 0.08044658 0.00053456036 -0.02622016 -0.07033055 0.06878474
-0.08734929 -0.0162194 0.068031035 0.00756324 -0.031049863 -0.045832843 -0.06915408 -0.08955005
0.08180914 -0.040318023 0.04451597 -0.07162312 0.036700923 0.029470807 0.060028978 -0.06291356
00000000: 702a eb3c abd4 a23c a57a d13d 1aff 463b
00000010: aa88 3dbb 4b03 84bc 643b 58bd 10d8 0abd
00000020: 1d33 0b3d dc24 88ba 2b06 6d3d 9da9 77bd
00000030: 30ac 463c 533f b7bd bf23 943d 0f6a 7e3d
00000040: b029 d03c f230 5f3d d32f 68bd 3b1b b63d
00000050: 0816 4dbd 4310 9bbd 144c 883d a6ff 403d
00000060: 1f07 01bc 2e9d a5bd ae4d 0f3d 6157 a83d
00000070: 2e52 23bc dbe0 3b3d 9e02 5c3d 8020 6dbd
00000080: 8956 91bd 11e8 7fbd 242c a73d 8d4f b23d
00000090: 7b64 543d 88f9 94bc e88b adbd ff1c a5bd
000000a0: d681 0dbd 6454 913a c0ab 0e3d 2dc1 a43d
000000b0: bd21 0c3a a9cb d6bc 7709 90bd 04df 8c3d
000000c0: 2fe4 b2bd 8cde 84bc db53 8b3d 0ed5 f73b
000000d0: 485c febc 38bb 3bbd a7a0 8dbd 0466 b7bd
000000e0: 8d8b a73d 8324 25bd 6156 363d 24af 92bd
000000f0: b553 163d c36c f13c f2e0 753d d3d8 80bd

fc3.weight f4 [10, 64]
0.16270386 0.15405558 -0.071818 -0.038613047 0.024576427 0.07225705 -0.06261829 -0.06411048
-0.052095138 -0.012362157 0.011940398 -0.0015795529 0.04762061 -0.081253424 -0.023088949 0.13942322
0.14005746 0.041558262 0.10257085 0.075124204 0.11931076 0.011944646 -0.12360525 -0.06685355
-0.024138918 0.0951983 0.11139357 0.07278858 0.013471716 -0.11747657 -0.059129342 -0.10330156
0.042353325 0.057610422 0.14530128 0.11106389 -0.038887355 -0.016847711 -0.1161156 0.07046628
-0.04621803 0.0998986 -0.034770973 -0.06716081 -0.10552061 -0.06642679 -0.12056579 0.06580925
-0.06296356 -0.07913352 0.008260987 0.04278099 0.055631682 -0.06267368 0.109847926 -0.028616952
0.04584753 -0.10126215 -0.09888425 -0.11876252 0.10182341 -0.027372258 0.0629759 -0.07798782
-0.022969447 0.018457795 0.13029584 -0.07986847 -0.052511744 -0.06768881 0.08275982 -0.08247394
0.039564658 -0.1410969 -0.11437837 0.11773108 -0.030171404 -0.0043201633 0.11574372 -0.0006739835
-0.05370491 0.1357062 0.07903111 -0.030264368 -0.07112377 0.013603864 0.10942059 -0.01802669
-0.068512134 -0.059758693 0.020210888 0.030918788 -0.02880641 0.06732206 -0.085693695 -0.042795334
0.057742488 0.03965226 0.049788494 -0.098655626 0.023633178 0.007079461 0.08742352 -0.03650996
-0.001367657 -0.16367075 0.11032231 0.11361181 -0.006535835 -0.1384482 -0.036209404 -0.06279988
0.099390045 0.008188203 0.06019672 -0.084135905 -0.06610347 -0.07646868 -0.035766494 -0.07350559
-0.09147184 -0.040667873 0.11588168 -0.09667189 -0.10228085 0.08652978 -0.11600625 -0.07241649
-0.105442986 -0.1097717 0.12513869 -0.0070813564 0.11716296 -0.031056145 0.114428595 -0.09546287
0.12650782 0.0069201053 0.017855138 -0.011510193 -0.048163705 0.0776922 0.117520116 0.018174628
-0.030720342 -0.043674227 -0.02471301 -0.10094532 0.029553266 0.046811014 -0.026318718 0.09540838
-0.049236372 -0.089624606 -0.08344225 0.015668636 0.13245234 -0.0978852 -0.049722504 0.06600385
0.09262997 -0.0061935666 -0.05460219 0.057362605 -0.0008990584 0.054813705 0.042071566 0.036002904
0.11018806 -0.0052284305 -0.11604825 -0.15027547 -0.04847037 -0.110648595 0.05019504 0.09820833
-0.005326569 -0.016081445 -0.11085146 0.049672946 0.054926056 0.10548274 -0.031942658 0.031711675
0.07216065 0.06649898 -0.10716013 -0.06282552 0.025298387 0.088729285 0.019279666 0.020557163
0.07382969 -0.03802394 -0.13037013 -0.10570618 0.09650636 -0.11460151 -0.117253244 0.04782342
0.028065635 0.11475385 0.068862736 -0.07305737 -0.11431221 -0.03069451 -0.10605997 -0.12156751
-0.1231417 0.04278452 -0.015265152 0.01073989 0.0012869872 0.11145259 0.0010161814 -0.112343684
-0.015456204 -0.06409111 -0.10870261 -0.124852926 -0.08410239 -0.121773906 0.0081609525 0.1295006
-0.08779872 -0.012695135 0.01505265 -0.121113956 -0.032980956 -0.08734647 -0.049702615 0.08270584
-0.06393248 0.03827683 -0.09491507 0.102623984 -0.01711875 -0.035028253 -0.062332302 -0.07998564
-0.0784968 0.005332582 0.11676682 -0.029124232 -0.009261025 0.116910465 -0.11608069 0.09134443
-0.059398044 -0.08872819 0.05830658 -0.054296628 -0.059769843 -0.10226771 -0.09003099 -0.10660325
00000000: d79b 263e bfc0 1d3e 5115 93bd b728 1ebd
00000010: 8154 c93c 81fb 933d 053e 80bd 5b4c 83bd
00000020: b661 55bd a58a 4abc a9a1 433c 0009 cfba
00000030: d40d 433d 3268 a6bd 0925 bdbc f6c4 0e3e
00000040: 396b 0f3e ff38 2a3d aa10 d23d b8da 993d
00000050: 3359 f43d 7ab3 433c c024 fdbd 84ea 88bd
00000060: fbbe c5bc 54f7 c23d 5022 e43d 2e12 953d
00000070: 79b8 5c3c 8e97 f0bd 9c31 72bd c58f d3bd
00000080: ae7a 2d3d e8f8 6b3d dcc9 143e 7775 e33d
00000090: 5948 1fbd 3604 8abc 04ce edbd a050 903d
000000a0: 1e4f 3dbd a397 cc3d 026c 0ebd 9b8b 89bd
000000b0: 311b d8bd c50a 88bd 32eb f6bd 00c7 863d
000000c0: 0af3 80bd c110 a2bd 1759 073c 1f3b 2f3d
000000d0: 0cde 633d 0f5b 80bd f3f7 e03d 196e eabc
000000e0: 9fca 3b3d 8862 cfbd d383 cabd c439 f3bd
000000f0: cb88 d03d c93b e0bc 82f9 803d 14b8 9fbd
00000100: 6c2a bcbc cd34 973c 466c 053e 1592 a3bd
00000110: 8e16 57bd 6ea0 8abd fb7d a93d 19e8 a8bd
00000120: 8d0e 223d b57b 10be 353f eabd fe1c f13d
00000130: 052a f7bc 2890 8dbb 0b0b ed3d 44ae 30ba
00000140: aef9 5bbd 91f6 0a3e 10db a13d fbec f7bc
00000150: 57a9 91bd bee2 5e3c e717 e03d b6ac 93bc
00000160: 1750 8cbd 88c5 74bd 4e91 a53c 6649 fd3c
00000170: 6cfb ebbc 26e0 893d 2d80 afbd 294a 2fbd
00000180: 6383 6c3d 686a 223d 05ef 4b3d f60b cabd
00000190: 5e9a c13c d3fa e73b 1a0b b33d 788b 15bd
000001a0: f442 b3ba 4e99 27be aaf0 e13d 4fad e83d
000001b0: 8f2a d6bb 5dc5 0dbe 5050 14bd 399d 80bd
000001c0: 028d cb3d d027 063c d690 763d 724f acbd
000001d0: 4261 87bd 9c9b 9cbd e37f 12bd 198a 96bd
000001e0: 9755 bbbd 5b93 26bd 6053 ed3d e9fb c5bd
000001f0: 9f78 d1bd 8636 b13d af94 edbd 194f 94bd
00000200: 7ef2 d7bd fccf e0bd 5b24 003e b90a e8bb
00000210: 22f3 ef3d 7569 febc 8a59 ea3d 0a82 c3bd
00000220: 448b 013e 0dc2 e23b f044 923c 4095 3cbc
00000230: 4e47 45bd 171d 9f3d 63ae f03d f5e2 943c
00000240: 3aa9 fbbc bfe3 32bd f072 cabc 6cbc cebd
00000250: b119 f23c e8bc 3f3d 5a9a d7bc 7865 c33d
00000260: 14ac 49bd 1b8d b7bd c5e3 aabd 835b 803c
00000270: 96a1 073e 0978 c8bd d3a9 4bbd 072d 873d
00000280: c8b4 bd3d 67f3 cabb 8ca6 5fbd 0df5 6a3d
00000290: caae 6bba 5684 603d 3c53 2c3d c877 133d
000002a0: 47aa e13d 4153 abbb b4aa edbd d0e1 19be
000002b0: de88 46bd bb9b e2bd 5099 4d3d 7321 c93d
000002c0: 808a aebb 3cbd 83bc 1706 e3bd dc75 4b3d
000002d0: 25fa 603d 5607 d83d 4ed6 02bd 1ae4 013d
000002e0: f6c8 933d 9e30 883d c576 dbbd abaa 80bd
000002f0: 903e cf3c b3b7 b53d 64f0 9d3c 7f67 a83c
00000300: 0534 973d febe 1bbd bf7f 05be 7b7c d8bd
00000310: 20a5 c53d 32b4 eabd 7822 f0bd 7ee2 433d
00000320: e7e9 e53c 1104 eb3d e807 8d3d 1a9f 95bd
00000330: 851c eabd 0e73 fbbc f835 d9bd 63f8 f8bd
00000340: b731 fcbd d23e 2f3d b01a 7abc 5df6 2f3c
00000350: 20b0 a83a 4141 e43d 6431 853a 7214 e6bd
00000360: 053c 7dbc 3342 83bd 799f debd e4b2 ffbd
00000370: e03d acbd 9964 f9bd 84b5 053c ce9b 043e
00000380: d1cf b3bd 41ff 4fbc 649f 763c 980a f8bd
00000390: 0a17 07bd b5e2 b2bd f894 4bbd ae61 a93d
000003a0: 08ef 82bd 2ac8 1c3d d562 c2bd 862c d23d
000003b0: 9f3c 8cbc c979 0fbd 2850 7fbd 83cf a3bd
000003c0: eec2 a0bd f1bc ae3b 7123 ef3d f195 eebc
000003d0: 8ebb 17bc c16e ef3d b6bb edbd ca12 bb3d
000003e0: 5d4b 73bd 20b7 b5bd e1d2 6e3d 2466 5ebd
000003f0: 39d1 74bd bc71 d1bd 2b62 b8bd ce52 dabd

fc3.bias f4 [10]
-0.0864674 0.07476484 0.013696155 0.08371149 0.06331615 0.018110469 -0.015721276 0.053018674
-0.06878665 -0.0348539
00000000: d215 b1bd 4f1e 993d d665 603c ee70 ab3d
00000010: e6ab 813d 685c 943c e8c9 80bc 1c2a 593d
00000020: 04e0 8cbd f7c2 0ebd
